NuralNetwork/mnist_model.pth (torch, 440581 bytes, 6 tensors)

1.weight f4 [128, 784]
00000000: 57a9 c03d 0848 f53d 624a 063e e6d0 fb3d
00000010: 7424 c43d 6a62 b43d 3a78 ea3d 1e2c fb3d
00000020: bf75 0f3e fb91 0a3e 1f7d 063e 889d 193e
00000030: 20b3 0a3e 556c 0f3e 001b d83d 60ac 073e
00000040: b12d 0f3e 0ae6 093e fb25 ab3d 88bb d93d
00000050: 8c23 193e 7ef9 ef3d 311a b83d 1c36 db3d
00000060: 7a04 f03d 1a65 f23d 270e 153e ea0e d13d
00000070: f7bd a73d 6e69 b63d cca3 083e c013 b03d
00000080: 10e1 013e 416b ac3d 68ba c73d 7aa3 0f3e
00000090: 465d ec3d 904e 053e 1b52 083e 662e f13d
000000a0: 3f48 083e 2cf9 a43d c8eb db3d 32b9 f43d
000000b0: 48a9 a53d 4ab4 fb3d 5737 073e d8c5 f33d
000000c0: 76cb 1b3e a0d7 dc3d a941 b93d 5aaf aa3d
000000d0: b123 0b3e a6ce e33d 6a3d d43d aacc df3d
000000e0: 2c33 083e 2c6b c33d 1608 aa3d a2b8 0a3e
000000f0: 4e57 e33d e0be 1a3e 20f0 ae3d f884 b73d
00000100: f2eb f93d be56 9b3d dfee c23d de48 ff3d
00000110: 006e 233e 223d e53d caac 4d3d eeef a23d
00000120: e50d e63d b163 f33d 8aaf df3d 6645 233e
00000130: 66b1 df3d ace9 253e 083f f93d bab5 183e
00000140: f7fc bc3d e69c d43d a6fa 183e f0fb bb3d
00000150: b028 eb3d 521a e63d 46aa d23d 0c44 103e
00000160: d466 b13d 4206 dc3d f31b 003e dea6 e03d
00000170: 38ae bc3d 4c8e d83d 353f ea3d ff0e eb3c
00000180: b2af 6c3c cda3 743d fc6a 113d 1c5b 743d
00000190: efa5 b83d 9891 c23d a784 5c3d 31d2 aabd
000001a0: c973 4b3d 26f9 313d 8817 de3d 9364 873d
000001b0: b23c 143e 1ef1 cf3d 94f3 253e 9824 073e
000001c0: 8dfb 053e 6cff 153e fa1b 9e3d fe32 ac3d
000001d0: 0ff1 b33d e132 9c3d b292 af3d 1cb4 be3d
000001e0: 8a9e 693c 92fe 133d da93 f83a 8efb 6ebe
000001f0: babb 45be 7254 873c e589 993d f33a 1a3e
00000200: 07a0 883e ae55 ac3c 5de9 9abd baee 88be
00000210: 1834 82be 99c7 09bd ffcd 2bbd f873 ec3d
00000220: 90bb 813e e619 473e 3c6e 233e c649 1d3e
00000230: 3974 ae3d efb7 103e 8db4 033e 2b8f bb3d
00000240: c0d5 eb3d 7f29 7d3d ddb4 20bd bbf8 493c
00000250: 1722 94bd b17e 0bbd ab49 803d 5c3e 87bd
00000260: 447c d43d 1c27 5c3e c6dd 263d bfdb 75be
00000270: e8c3 94be 9073 2cbe e89b 29be 617b 70be
00000280: 54c8 c4be a606 aebe cfe6 a23d fea0 353e
00000290: 58d0 da3d 96a1 1d3e f4d7 383e 1428 ed3d
000002a0: 3bd5 173e 55c5 143e 2bde 133e c869 c93d
000002b0: f9e2 033e aeb2 f43d 9ce4 e8bc 245c fdbd
000002c0: 75dd e7bd e37f 493e ca22 863e f0ca 0c3e
000002d0: 4e77 9b3d eb74 52bc 726e 8cbe d3f0 2ebe
000002e0: 9152 2abe bbfc c6bc 264c 433c 7acf a43e
000002f0: 78f5 743e 7033 843e 148e ca3e 1cd8 113f
00000300: e6e7 463f 9250 153f 25d3 0b3e 8477 ee3d
00000310: 8ca5 ff3d aa01 1b3e 7a03 f03d 8e10 ce3d
00000320: eed1 ea3d 6647 0e3e f77b 2ebd eabb f9bd
00000330: ed79 17bd 9aa1 153f cc3e 9e3e 3f74 913e
00000340: cc90 e43d 9483 9c3e c4ea 1c3e b84b 9f3e
00000350: c845 d23e b10d dc3e e0b1 f03e d81e e53e
00000360: 54bc c53e e661 0e3f 82dd 3e3f e77f 333f
00000370: 61c7 3d3f 24a5 083f f5ef 7a3d a98b 0b3e
00000380: ee68 db3d 4286 1a3e b5e0 e03d 85e1 d33d
00000390: 31e1 033e 01f9 1a3e 2a54 1d3e 41c0 1ebe
000003a0: 00e9 acbd ca1f 043f 047b 853e 50f9 103e
000003b0: 9d76 343e 96a9 a13d f035 a83c ef7e bc3d
000003c0: 9e49 203e 08dc 7b3c 1604 773d 8b49 543e
000003d0: 2b34 a13e 6df4 283e 5b9b 313f 40fd 673f
000003e0: 6a0a 0b3f ba50 4b3e 5341 e03d 9456 dc3d
000003f0: f9d3 073e 72d4 d23d 8dfc 073e 2452 e13d
0.09407299 0.119766295 0.13114312 0.122957036 0.095772654 0.088078335 0.11448713 0.12264274
0.1400976 0.1353225 0.13133667 0.150015 0.13544893 0.14006169 0.10552025 0.1324935
0.13982274 0.13466659 0.083568536 0.10631472 0.14954966 0.11717509 0.089893706 0.1070368
0.11719604 0.1183569 0.1455618 0.10207923 0.0819053 0.08906828 0.13343734 0.08597517
0.12683511 0.084188946 0.09752351 0.14027205 0.11541228 0.1301825 0.13312571 0.11776428
0.1330881 0.08055338 0.10738331 0.11949386 0.080889285 0.12290247 0.13204704 0.1190297
0.15214333 0.10783315 0.09045727 0.08334227 0.13587834 0.111233994 0.10363276 0.109277084
0.1330077 0.09541926 0.083023235 0.13546994 0.111006364 0.15111876 0.08541894 0.08960909
0.12203206 0.07584904 0.09518217 0.1246507 0.1595993 0.11193301 0.050213613 0.07955919
0.11233119 0.11884249 0.10922153 0.15944442 0.10922508 0.1620242 0.121702254 0.14913073
0.09227937 0.103814885 0.14939365 0.09178913 0.1148237 0.11235489 0.10286383 0.14088458
0.08662191 0.10743381 0.12510662 0.109693274 0.09212917 0.10574016 0.11437837 0.028693674
0.014446186 0.059726525 0.03550242 0.0596572 0.09016024 0.09500426 0.053837445 -0.08340872
0.04967097 0.043450497 0.10844332 0.0661098 0.14476278 0.10153411 0.16206199 0.13197553
0.1308424 0.14648217 0.0772018 0.084081635 0.08786213 0.07626892 0.08572902 0.09311697
0.01425899 0.03613145 0.0018964962 -0.23338148 -0.19309893 0.016519759 0.074970044 0.1506155
0.2668459 0.021036949 -0.07564042 -0.26744634 -0.2543037 -0.033637617 -0.0419445 0.11545557
0.2533841 0.19443473 0.1596002 0.15360174 0.085182615 0.14132665 0.12861843 0.091581665
0.11515379 0.061807152 -0.039234985 0.012327368 -0.072330646 -0.03405637 0.06264051 -0.06603691
0.10375264 0.21499294 0.040738843 -0.24009608 -0.29055715 -0.16840959 -0.1656338 -0.23484565
-0.38434088 -0.33989447 0.079541795 0.17737195 0.1068427 0.15393671 0.1805113 0.1157991
0.14827435 0.14528401 0.14440219 0.09834629 0.12879552 0.11948143 -0.028429322 -0.1237109
-0.113215365 0.19677691 0.26198417 0.1374929 0.07591115 -0.012845258 -0.27428013 -0.17084055
-0.16633059 -0.024290433 0.011920011 0.32189542 0.23921764 0.25820494 0.39561522 0.5697038
0.776976 0.58326066 0.13654764 0.116438895 0.124827474 0.15137354 0.11719413 0.10061751
0.11465822 0.13894424 -0.04259869 -0.12194045 -0.03698151 0.5844971 0.30907285 0.28409
0.1116043 0.30569136 0.15323931 0.31112456 0.41068864 0.42979196 0.47010708 0.44750094
0.38620245 0.5561813 0.74556744 0.7011704 0.74132353 0.53376985 0.061263997 0.13627495
0.10713373 0.15090278 0.109803595 0.10345749 0.12878872 0.1513405 0.15364137 -0.15503027
-0.08442879 0.51611006 0.26070416 0.14157605 0.17623372 0.07893674 0.020533532 0.09203898
0.15653083 0.015372284 0.06030663 0.2073118 0.31485114 0.16499491 0.6937768 0.90620804
0.54312766 0.19855013 0.109499596 0.10758701 0.13264455 0.10294427 0.13279934 0.11001995

1.bias f4 [128]
00000000: 0aba eabd e94b 9abd b64e 01bd f084 15bd
00000010: f247 a53b b35c e2bd 638d 00be 6da1 9bbd
00000020: 6987 23bd 9423 48bd b411 2bbd 6c31 50bd
00000030: 953c c4bd 4338 bebd df76 603c 0485 debd
00000040: 58a3 b13b 8812 b4bd b01f 99bd 1025 7bbc
00000050: ba88 f9bd e3a6 163d 0d75 0bbb 8e7d 15bd
00000060: 5e8e a7bd 129b 5b3d 127e 323a 6cbc a2bd
00000070: 8abe 41bd a23a 7cbd 6f87 2dbd bfa4 86bd
00000080: 0412 6b3a f810 55bd d025 c1bd 5318 1dbd
00000090: 2e8e 5d3c 1809 15be ca13 0e3d 5ec4 4abd
000000a0: b4fb ec39 a455 e8bc edfd 22bc 2e84 333d
000000b0: 64bb 69bd f898 4fbd 6817 04be 9c01 fbbb
000000c0: cda5 b83b 3ebe 89bd b809 a9bd 5266 0e3d
000000d0: 0e0e 8fbd 92cc 69bc f826 bcbc 142b 69bd
000000e0: 5ba9 3bbb 4051 52bd b218 6abd cd03 27bd
000000f0: cf91 60bd 90df 26bd 9369 93bd ec60 d9bd
00000100: e8e6 07be bee2 dbbd 323e f7bd 80a2 bfbc
00000110: fc7e febc 861f 50bd 96a3 5abd db3f 4bbd
00000120: daf1 85bd 8f4f b3bd 5eae c1bd 3fb2 aebc
00000130: 43da c3bb a8a8 0dbc b9e3 45bd 64f0 d0bc
00000140: ced1 4bbd fa94 b3bd 0ce4 1bbd 7d0d a4bd
00000150: acfe a73b 3dea c8bc 3928 fdbd 5316 afbd
00000160: 4c95 86bd dee8 cabd 1af2 96bb cd73 2a3c
00000170: 4297 2bbd a9a1 44bd dd4d c6bd a676 4fbb
00000180: 1fea 85bd 4166 9ebc d422 21bd 90a7 95bd
00000190: 9ac2 35be 5c8f 8cbc 4998 07bc f744 61bd
000001a0: 5a4d 683d 81d4 babb ddb2 06be 3491 ddbc
000001b0: f11e 98bd 0b57 00be 5aa0 6bbb 7189 f6bc
000001c0: 0038 44bd d58c c1bd ee47 c6bd ba27 b0bd
000001d0: 759f f3bb 0312 3dbc 56bc 7abd e02d 7cbd
000001e0: a6b4 a33c c1d2 33bd 7f31 b3bd 4a09 5cbd
000001f0: b2e3 d9bd 8695 40bd ba8d b4bd d6e8 d0bb
-0.114612654 -0.0753401 -0.031569205 -0.036503732 0.005043977 -0.11052837 -0.12553935 -0.07599149
-0.03992406 -0.048862055 -0.04176493 -0.050828382 -0.095818676 -0.09288075 0.013700216 -0.108652145
0.0054210834 -0.08792597 -0.07476747 -0.015328661 -0.12184282 0.03678025 -0.0021279484 -0.03649669
-0.08181451 0.053614683 0.0006808947 -0.07946095 -0.047300853 -0.061579354 -0.042365488 -0.065743916
0.0008967223 -0.052018136 -0.0943104 -0.038353276 0.013522668 -0.1455425 0.03468684 -0.049503677
0.0004520096 -0.02836115 -0.009948236 0.04382723 -0.057063475 -0.05068299 -0.12899554 -0.007660104
0.0056349994 -0.06725739 -0.08253807 0.03476555 -0.069851026 -0.014269965 -0.0229678 -0.056925848
-0.002863488 -0.051347017 -0.057152458 -0.04077511 -0.054826554 -0.04074055 -0.07197871 -0.106141895
-0.13271677 -0.10736607 -0.1207241 -0.023392916 -0.03106641 -0.050811313 -0.053378664 -0.049621444
-0.0654027 -0.08755409 -0.09457086 -0.021325229 -0.0059769466 -0.008646168 -0.048312876 -0.025505252
-0.049760632 -0.087686494 -0.03805928 -0.08010385 0.005126795 -0.024525756 -0.123611875 -0.0854918
-0.06571445 -0.09907697 -0.0046064975 0.010403586 -0.041892298 -0.048005734 -0.0968282 -0.0031656413
-0.06538796 -0.019335868 -0.039339855 -0.07307351 -0.17750016 -0.017158203 -0.008276054 -0.05499741
0.056714393 -0.005701602 -0.13154168 -0.027046777 -0.074277766 -0.12533204 -0.0035953731 -0.030094834
-0.04790497 -0.0945069 -0.09681688 -0.08601327 -0.0074347802 -0.011539939 -0.061214767 -0.061567187
0.0199836 -0.043902162 -0.08749675 -0.053719796 -0.106391326 -0.047017597 -0.08816095 -0.0063754125

3.weight f4 [64, 128]
00000000: e706 303e f265 933e 6e0a 45bd ecdd f03e
00000010: 0adb 3dbe 65ad 463e bcfa 9e3e 3bc0 f13d
00000020: e1dc 57bd 3778 393e 3b93 383e c4e1 8abe
00000030: 4244 f2be 979f a3be f852 21bf ea44 7dbe
00000040: a271 953d 7f34 3e3e 7237 1dbe cfbf 95bd
00000050: 77cb 183e 35ce 443e f332 ebbd 1a48 1dbf
00000060: 58a8 e83c 3e3f 85be 1541 02be b5f2 7e3e
00000070: be1d 87be 0774 e1be d373 c43d 86ca c83e
00000080: e195 6d3e 32d2 993e 333a 9dbd 43aa da3d
00000090: 68a5 843e c09d a8bd e3f3 d83e 1cdf a53e
000000a0: 7939 c93d b343 4f3e 2ac2 19bd 596f afbe
000000b0: 0635 d73e 4a30 4c3e c417 1c3e c708 efbe
000000c0: e471 10bf 18a8 0cbf cf8c 853e cf60 8ebe
000000d0: a9db 0e3e 8376 863d 82ea 62be 4eac d3be
000000e0: a32e 61be 6488 4c3e 0a3b ffbd f1ce 09bf
000000f0: 7a4e d3be 5ac1 403e 5e1d 92bd ee92 e63e
00000100: 7044 5abe 2a28 0e3d 9f4d b03e aa62 b8bd
00000110: c67d 21bd c5b5 e6bc 3e11 8cbd 895f 24be
00000120: fa09 a5be 4540 b23c 3aca 86be d44d 893d
00000130: 1a85 0b3d 9d92 56be b15e 1d3e 6ea1 d7be
00000140: 92dd 56be e660 77bf 26c9 9a3e 1481 963e
00000150: 0ff5 043e 3f28 943e 3187 f83c fcff 853b
00000160: 16c5 01bc ae6f 4d3e 0dec acbe ffba 62bd
00000170: 0459 bcbe 7ccc 8fbe 809e 33bf 2cc4 cbbc
00000180: 9e24 473d ef3f 1abe 6859 e2be 971f 013f
00000190: 8aa7 acbd fcac 7c3e 3aa7 413e 3e73 0ebf
000001a0: 62c8 9a3d 2ddc 21bd 159e 383e d82e 563e
000001b0: 94d9 91bd 1529 b33e 0869 41bd aed4 edbe
000001c0: 3bcf 68bd 8985 923e 4970 0a3e 9901 753e
000001d0: c455 62bd 9d4d a73e 8e1b 9cbd 88ac 28be
000001e0: d560 223e 0689 a63e 8a26 c1be 8220 e33d
000001f0: e7ad 46bf 4484 c1be 0cc0 423d e3b4 0fbf
00000200: 7211 b53b f1e9 fabb 86cb 583d 5b03 9e3d
00000210: bb36 9dbd c727 52bd e1ca 7c3c f697 1f3e
00000220: 1d59 ef3d 983b d33e 793e b4bd c500 ae3e
00000230: 02eb 4d3e c5bd d9be f957 b93e ab1d 5b3d
00000240: 4281 083b 95ef c43d a34a 5a3e fbcf c6be
00000250: 31b6 72be f025 35bf 656d 45bd a17d 903e
00000260: 26bc 043e 215c 9fbd 187f 35bd ab9e 963d
00000270: 9a23 f2bb cc53 e53c ad75 953c a37f b53e
00000280: df5f c9be 4cb1 82be 061b d5bd 9077 0cbe
00000290: 9688 55be 19e4 c83e 67fa 0e3e b262 623e
000002a0: 6a80 cd3c 53c6 9f39 3113 6fbd 86c4 143e
000002b0: ccc3 3abc 8684 e43e c709 96bd e3a7 e2be
000002c0: 3a1a d53c 4ac1 6a3d 6137 6bbc 2932 a23d
000002d0: 5810 133e 4ca6 38bd 9462 d7be 9a90 9a3d
000002e0: 4da8 85bd bcbf 10be f396 b63d 5446 31bd
000002f0: fbeb ccbe 298f 0ebe a887 ddbd 525a 083e
00000300: 83e3 fabc 34cf bdbe dd29 7e3e c7a4 c93b
00000310: 31bb c43e 5cea a33d 8f53 5c3e 39d9 cdbd
00000320: c26b f1be a7b2 5d3d 5b0e 17bf 977b 373e
00000330: 5439 c8be 9956 b2bd 8b86 da3e 7a2c 803e
00000340: 6197 4c3e b369 813e 2e45 90be ed70 8dbd
00000350: 40e5 b73d f45e 3fbe 45d5 443e 2e5b 0dbe
00000360: e9b1 a2bc ed30 193d 578c 26be 59a0 7a3e
00000370: 56ba b53e b77e 563e 1c91 af3c e90d d8bd
00000380: 3156 663d bfbb afbe f759 ed3b 2fd1 37bd
00000390: 86a5 8fbd e87c 013e 008a b4be 8fa5 9d3d
000003a0: e167 c6bc cef2 6a3d 68f0 40bc 676e f53e
000003b0: 7300 b8bd b8d9 0a3e d393 393d 176a a13e
000003c0: 00c3 253e dd46 00bd 3209 e33d 0311 2c3e
000003d0: b557 3cbe fc8a 37be eb32 1fbe 3644 f2bd
000003e0: 9cbd a8be a7a3 443e e7df 2cbe 9655 f1bd
000003f0: 6831 7e3e e8a1 efbd 2c6a f53c 51c6 c0bd
0.17190133 0.28788716 -0.04810565 0.47044313 -0.18540588 0.19402082 0.3105067 0.11804243
-0.05270088 0.18112265 0.18024914 -0.2712537 -0.47317702 -0.31957695 -0.63017225 -0.2473332
0.07297064 0.18574713 -0.15353182 -0.07311975 0.14921366 0.19219287 -0.11484327 -0.61438143
0.028400585 -0.26024812 -0.1272014 0.24897273 -0.2638988 -0.44033834 0.09592404 0.39217013
0.23201706 0.3004318 -0.07677116 0.10677006 0.25907445 -0.082332134 0.4237357 0.3239678
0.09825415 0.20240669 -0.037538685 -0.3426464 0.4203264 0.19940296 0.15243441 -0.46686384
-0.56423783 -0.5494399 0.2608399 -0.27808234 0.13950981 0.06565573 -0.2215977 -0.41342396
-0.21990447 0.19973904 -0.12462433 -0.5383139 -0.4127081 0.18823758 -0.071345076 0.45033973
-0.2131517 0.034706272 0.3443422 -0.09003194 -0.039426588 -0.028162846 -0.06839226 -0.16052069
-0.32234174 0.021759162 -0.26326162 0.06704298 0.034062482 -0.20954366 0.15368153 -0.4211535
-0.2098296 -0.9663223 0.3023159 0.29395354 0.12984107 0.28936955 0.030337902 0.0040893536
-0.007920524 0.20062134 -0.33773842 -0.055354115 -0.36786664 -0.28085697 -0.70163727 -0.024873815
0.048618905 -0.15063451 -0.44208837 0.5043883 -0.08430393 0.24675363 0.18911448 -0.55644596
0.07557751 -0.039516617 0.18029054 0.20916307 -0.07121578 0.3499228 -0.047219306 -0.46451324
-0.056838255 0.28617504 0.13519396 0.2392639 -0.055257574 0.32676402 -0.07622443 -0.16472065
0.15857251 0.32526416 -0.37724715 0.11090185 -0.77609104 -0.37796223 0.04754643 -0.56135386
0.0055257613 -0.0076572825 0.05292847 0.07715484 -0.07676455 -0.051307466 0.0154292295 0.15585312
0.11686919 0.41256404 -0.08800978 0.33984962 0.2010918 -0.42527595 0.3619993 0.05349509
0.0020828997 0.09616009 0.21317534 -0.38830552 -0.23702313 -0.70761013 -0.04820003 0.28220847
0.12962398 -0.07781244 -0.04431066 0.07354482 -0.007389498 0.027994059 0.018244589 0.35448942
-0.39330956 -0.25525892 -0.10405545 -0.13717484 -0.20852885 0.39236525 0.13962708 0.22107962
0.025085647 0.00030474606 -0.05836791 0.14528093 -0.011399221 0.44632357 -0.07326084 -0.44268712
0.026013482 0.05731324 -0.014356465 0.079197235 0.14361703 -0.045080468 -0.42067397 0.07547112
-0.065262415 -0.14135641 0.0891551 -0.04327996 -0.4002379 -0.13921799 -0.1081689 0.13315704
-0.030626064 -0.37072146 0.24820657 0.006153676 0.38424066 0.08003685 0.2151625 -0.100511976
-0.47152525 0.054125454 -0.5900628 0.1791824 -0.39106238 -0.087079234 0.42680773 0.25033933
0.19979621 0.25275955 -0.2817778 -0.069063045 0.08979273 -0.18688565 0.19221981 -0.13804314
-0.019860225 0.037400175 -0.16264473 0.2447523 0.35493726 0.20946775 0.021431498 -0.10549528
0.056234542 -0.34322926 0.0072433907 -0.044877227 -0.07013993 0.12645304 -0.35261536 0.076975934
-0.024219455 0.057360463 -0.011776067 0.47935793 -0.08984461 0.13559616 0.04530699 0.31526253
0.16187668 -0.03131758 0.11085738 0.16803364 -0.18392833 -0.17924112 -0.15546767 -0.118294165
-0.3295716 0.19203053 -0.16882287 -0.11783902 0.24823534 -0.11700803 0.029957853 -0.09412826

3.bias f4 [64]
00000000: 219a 163f c92b e5bd 0605 2ebf d32a 80be
00000010: 9bbe 58be 70c5 b83e 0c08 95be 88fc 9f3d
00000020: 10cf 13be b2da 8a3e 7f4a 6b3d 79b8 bebe
00000030: 861d cbbe ec50 01bf 03e8 073e f30c 003e
00000040: bc11 f43e 3785 2bbb d49c 02bf 0faf 0a3e
00000050: 3567 503e 4d55 1a3f 6756 adbe 4198 813e
00000060: 3f01 41bf 8f5e 5abf a09e a1be fd27 fabd
00000070: 9e94 dcbe 2b4e 3dbf 365a e73e d2c0 b33d
00000080: 96d3 04be ba47 2ebf 8d6f ad3d bbc5 aabe
00000090: cb18 59ba 3533 0e3f b0e3 fc3e 4e78 cebd
000000a0: 31ea c5be 534b 7bbe ebf1 463e 0e7b a5be
000000b0: cebe ddbe f49c b13e eafd 2bbe 3c08 7ebe
000000c0: 171d 1a3f fa4b 443d 16ba e1bd 8b64 cfbe
000000d0: 9377 383e fb01 9abe 9523 ea3e 529b 9bbd
000000e0: 6620 64be 82b6 78be 2cba 293f d81c 94be
000000f0: df8f 65bf 75ee 3dbe c21e 20bc 3ed7 6d3f
0.5882893 -0.11189992 -0.67976415 -0.25032672 -0.2116646 0.36088133 -0.29107702 0.078118384
-0.14434457 0.27119976 0.057444092 -0.37250116 -0.39670962 -0.505141 0.13272099 0.1250494
0.4766978 -0.0026171932 -0.5102055 0.13543342 0.2035187 0.6028641 -0.33854982 0.25311473
-0.75392526 -0.85300535 -0.31566334 -0.122146584 -0.43082136 -0.739474 0.45186013 0.08777012
-0.12971339 -0.68078196 0.08468542 -0.3335398 -0.00082815875 0.55546886 0.49392462 -0.1008154
-0.38655236 -0.24540453 0.19428222 -0.32320446 -0.43309635 0.34690058 -0.1679608 -0.24807829
0.6020064 0.04792402 -0.11021821 -0.40506396 0.18014364 -0.30079636 0.45730272 -0.075979844
-0.22277984 -0.24288371 0.662997 -0.28928256 -0.89672655 -0.18547995 -0.009772958 0.9290656

5.weight f4 [10, 64]
00000000: 9a92 e9bd 2b3c 0bbf d9b8 33bd 235a 3a3e
00000010: 05a4 413e 69ac a2be 0971 9e3d 814b 0f3e
00000020: 3f8a 14bf 1898 8ebd 9c0b 99be 2239 9abe
00000030: 9abf 02bf c988 023e a7e5 6f3e cdb8 363e
00000040: 307f b6be 90b2 8ebe 827d ccbe a530 1e3d
00000050: 2ba5 08bf 7366 cebe 555e 9ebe 49e7 283e
00000060: 2a63 abbe 6208 0ebe 57db b4be 620d bcbd
00000070: a813 a83d db89 87be 08a5 dfbe c877 b23d
00000080: 0028 083e 74d4 0b3e 75d1 10be 5f9f 263e
00000090: 4aec a8be ad7d 1ebe 0c9f 8fbe 8f7d 5c3d
000000a0: cec9 89be d6e5 373d 6f3d ccbe e739 d23d
000000b0: 9a90 003d d9a0 843e 3ae1 15be b240 0ebd
000000c0: 0654 6c3e 65c7 e2be 839e 293e f2ef 923d
000000d0: fa96 053e 3aa1 8cbe 7dc6 963d ff0f 123e
000000e0: 3053 ae3d 50e3 11bf 37a8 c63d 0793 ac3e
000000f0: 301b b13d 9761 213e f3a5 26be 37f0 14bc
00000100: a17f 953d cad3 eb3d 2686 c83d 0f00 22bf
00000110: 447a 28bf b9b9 0dbd b1bf 823e dce0 d5be
00000120: f631 193e 8749 003e 7b97 973d 1f9c 3b3e
00000130: f59d cfbe ffe8 90bd 0c48 a63d 6ee9 37be
00000140: 4904 45be 586e 0abf d7cb 68be c3c3 aebe
00000150: f231 85be 7492 d2be bfda 003e 9609 98be
00000160: c676 ba3c 1562 353e 1a27 2a3e d3d3 38be
00000170: d13b 293e 6e4e 433e 0635 d73c ca98 82be
00000180: 8653 d9be 6624 6e3c 3c93 18bf 630d acbe
00000190: f6cf 113e c8be bdbd ca06 ffbd 9bcf d1bd
000001a0: fa1f 693e bec6 b6be f632 79be 0aca 913e
000001b0: 8cc7 923d 5a62 8c3c 5e4a ddbe 784a 6cbe
000001c0: 4bed ed3c ccaa c7be cc2f d9be 014f a33e
000001d0: 864a 1c3e 38ce 8c3e 3f09 f73d 55ed 00bf
000001e0: 2dd5 e8be 57fd 733e 5d79 53bd 4cc3 e1bd
000001f0: 0f01 673e c74e 0bbf b1e4 d2be 55ef e6be
00000200: 91a2 6abe 9085 a73c 3c89 13be c197 0ebe
00000210: dd63 99be 2d31 b4be 2df6 04bf 4a30 d33d
00000220: ca05 b8bd 47c9 993d 4cdd db3c 50cf 9ebd
00000230: 8a6f 123e 2383 e43d 76a7 16be 4521 9ebe
00000240: 6b5b 01bf f786 7f3e 7cc4 103e 0e6a b63d
00000250: 10de f03d deec b0be 4a96 293d b08b 003e
00000260: 9427 a33d a60f c93d 0ab4 323e e9f9 e33d
00000270: 922f 05be 16c1 26be 7c62 383a 6bb5 4bbe
00000280: 1ed7 213e 40c2 a73e 280a 29be 8e05 9dbe
00000290: 39bf 85bd 7854 f83d 3797 c33c cd09 85be
000002a0: 5872 843c 9014 6d3e fb28 86be cc41 9a3e
000002b0: 9c04 1abe 429e e93c 10a6 5d3e ae6b e73d
000002c0: 9dec a33c da68 99be 1944 22be 2034 88bc
000002d0: 49a2 9dbe 06e1 28bf 5031 f63c b151 9c3d
000002e0: d298 203e 9c79 403d 6be6 e5bc 8256 b03d
000002f0: baf9 6bbd 4518 09be dfa6 5c3e 877d d1be
00000300: 305f 98be 216d a53d 95a6 653e 497b e9bd
00000310: f5c7 bbbd f2f5 1c3e f9e9 d5be 5702 b4bd
00000320: 91ab c5be 634a b2be fdbd aebe f9ba 443e
00000330: 8ae4 913d f1da 07be 1d25 f3bd 0b8b 1a3e
00000340: 1529 84bc fb68 9dbd e4d9 0f3d 44db fa3d
00000350: ebc2 603d 6118 903e e098 d7be d964 c13d
00000360: 4c0a fb3d 7352 a13d 7b9c fabd 2c10 073d
00000370: ed2d 9a3c bcfa 74be 99c1 c9be 67a2 93be
00000380: f27a 53be dfd9 edbd 65bf 3d3d bd75 963d
00000390: a844 153e 0891 4d3a be75 fcbd db57 d4be
000003a0: c01a 193e f935 8abe 0554 533e 8e54 51be
000003b0: 7a1e e93d a1e9 0cbc 979d 89bd 3a1b 843e
000003c0: 1c35 c2be 3063 003d 8e8d 043e a2f4 523d
000003d0: 01ea df3d de47 273d 5a3f 873d 8ec9 dbbe
000003e0: 5912 65bd be2d e03d ae34 73bd 27e7 b0be
000003f0: a1b3 acbe af1e 4ebd 5c8e 993d be49 b1be
-0.11404915 -0.54388684 -0.043877456 0.18198447 0.18910225 -0.31772164 0.077364035 0.13993646
-0.58023447 -0.06962603 -0.2989167 -0.30121714 -0.5107361 0.12747492 0.23427449 0.17843933
-0.3564391 -0.27870607 -0.39939505 0.03862061 -0.53377026 -0.40312538 -0.30931345 0.16494478
-0.33474094 -0.13870385 -0.35323593 -0.0918224 0.08206874 -0.26472363 -0.43680596 0.08714253
0.13296509 0.13655263 -0.14142402 0.16271733 -0.32992774 -0.15477629 -0.2805103 0.05383068
-0.26911777 0.044896923 -0.3989062 0.1026495 0.031387903 0.25903967 -0.14636698 -0.034729667
0.23078927 -0.4429275 0.16564374 0.07174672 0.13045874 -0.27466756 0.073620774 0.14263915
0.085119605 -0.56987476 0.09700053 0.33705923 0.08647764 0.15759884 -0.16274242 -0.009090475
0.07299734 0.11515005 0.09791212 -0.6328134 -0.6581156 -0.034600947 0.25536874 -0.41773117
0.14960465 0.12528048 0.074019395 0.18321274 -0.405502 -0.070756905 0.081192106 -0.1796014
-0.19239916 -0.5407462 -0.22734009 -0.3413373 -0.26014668 -0.4112736 0.12583445 -0.29694813
0.022761714 0.17713197 0.16616479 -0.18049555 0.16526724 0.19072887 0.0262704 -0.25507194
-0.42446536 0.014535045 -0.5959966 -0.33603963 0.14239487 -0.09264904 -0.12452467 -0.10244676
0.22766104 -0.35698503 -0.24335846 0.28474456 0.07166967 0.017136741 -0.432208 -0.23075283
0.029043814 -0.38997495 -0.4241928 0.31896213 0.15262803 0.27501082 0.120623104 -0.5036214
-0.4547514 0.2382711 -0.051629413 -0.11023578 0.22558998 -0.5441708 -0.41190103 -0.4510447
-0.22913577 0.02044943 -0.1440782 -0.13925077 -0.29959002 -0.35193768 -0.51938134 0.10311945
-0.08985479 0.07509094 0.026838921 -0.077543855 0.14300361 0.11157825 -0.14712319 -0.30884758
-0.5053012 0.24953829 0.14137453 0.08906947 0.11761105 -0.34555715 0.041403092 0.12553287
0.07966533 0.09817438 0.17451492 0.11131651 -0.13006428 -0.16284594 0.0007033718 -0.19893424
0.15804717 0.32765388 -0.1650778 -0.306683 -0.065306135 0.12125486 0.023875816 -0.2598404
0.016167805 0.23152375 -0.2620314 0.30128324 -0.15040821 0.028517846 0.21645379 0.11299835
0.020010287 -0.29962808 -0.1584629 -0.016626418 -0.30787876 -0.6596836 0.03005281 0.07632769
0.15683296 0.046990976 -0.028063973 0.0861025 -0.057611205 -0.13388164 0.21548031 -0.40916082
-0.29760122 0.08077455 0.22426827 -0.11400468 -0.09168998 0.15328196 -0.4178007 -0.08789509
-0.38607457 -0.34822378 -0.34129325 0.1921195 0.071236685 -0.13267113 -0.11872313 0.15092103
-0.01613287 -0.07686039 0.035119906 0.12248853 0.05487339 0.281436 -0.42108822 0.09443063
0.12257823 0.07877054 -0.122368775 0.032974407 0.018820727 -0.23923773 -0.39405516 -0.2883484
-0.20652369 -0.11613821 0.046325106 0.073466755 0.14576972 0.0007841741 -0.12327145 -0.41473278
0.1495161 -0.26994303 0.2063752 -0.20442411 0.11382766 -0.008600623 -0.06719511 0.25802022
-0.37931144 0.031344593 0.12944624 0.05150283 0.109333046 0.040840022 0.0660388 -0.42927212
-0.0559257 0.10946225 -0.05937641 -0.34551355 -0.33730796 -0.05032223 0.07497856 -0.34626573

5.bias f4 [10]
00000000: cacf 9ebd 5183 f7be cef8 c3be 45cc c5bc
00000010: f411 17bb 90d0 a8be dc65 35be a47a f2be
00000020: 499e a73f 90b0 133e
-0.07754476 -0.48342374 -0.3827576 -0.024145255 -0.0023051472 -0.3297162 -0.17714638 -0.47359192
1.309518 0.14422822
